…
        "id": "L70kab6cU5b1",
        "outputId": "27c8f7e1-f415-4cb0-eb8e-d826155fac04"
      },
      "source": [
        "torchsummary.summary(model, (1,28,28)) #確認用"
      ],
      "execution_count": null,
      "outputs": [
        {
          "output_type": "stream",
          "name": "stdout",
          "text": [
            "----------------------------------------------------------------\n",
            "        Layer (type)               Output Shape         Param #\n",
            "================================================================\n",
            "            Linear-1                   [-1, 50]          39,250\n",
            "         LeakyReLU-2                   [-1, 50]               0\n",
            "            Linear-3                   [-1, 50]           2,550\n",
            "         LeakyReLU-4                   [-1, 50]               0\n",
            "            Linear-5                   [-1, 10]             510\n",
            "         LeakyReLU-6                   [-1, 10]               0\n",
            "           Softmax-7                   [-1, 10]               0\n",
            "================================================================\n",
            "Total params: 42,310\n",
            "Trainable params: 42,310\n",
            "Non-trainable params: 0\n",
            "----------------------------------------------------------------\n",
            "Input size (MB): 0.00\n",
            "Forward/backward pass size (MB): 0.00\n",
            "Params size (MB): 0.16\n",
…
